…
I0427 18:59:03.237015 22655 net.cpp:296] The NetState phase (0) differed from the phase (1) specified by a rule in layer accuracy
I0427 18:59:03.237063 22655 net.cpp:53] Initializing net from parameters: 
name: "CIFAR10_quick"
state {
  phase: TRAIN
  level: 0
  stage: ""
}
layer {
  name: "cifar"
  type: "Data"
  top: "data"
  top: "label"
  include {
    phase: TRAIN
  }
  transform_param {
    mean_file: "examples/cifar10/mean.binaryproto"
  }
  data_param {
    source: "examples/cifar10/cifar10_train_lmdb"
    batch_size: 100
    backend: LMDB
  }
}
layer {
  name: "conv1"
  type: "Convolution"
  bottom: "data"
  top: "conv1"
  param {
    lr_mult: 1
  }
  param {
    lr_mult: 2
  }
  convolution_param {
    num_output: 32
    pad: 2
    kernel_size: 5
    stride: 1
    weight_filler {
      type: "gaussian"
      std: 0.0001
    }
    bias_filler {
      type: "constant"
    }
  }
}
layer {
  name: "pool1"
  type: "Pooling"
  bottom: "conv1"
  top: "pool1"
  pooling_param {
    pool: MAX
    kernel_size: 3
    stride: 2
  }
}
layer {
  name: "relu1"
  type: "ReLU"
  bottom: "pool1"
  top: "pool1"
}
layer {
  name: "conv2"
  type: "Convolution"
  bottom: "pool1"
  top: "conv2"
  param {
    lr_mult: 1
  }
  param {
    lr_mult: 2
  }
  convolution_param {
    num_output: 32
    pad: 2
    kernel_size: 5
    stride: 1
    weight_filler {
      type: "gaussian"
      std: 0.01
    }
    bias_filler {
      type: "constant"
    }
  }
}
layer {
  name: "relu2"
  type: "ReLU"
  bottom: "conv2"
  top: "conv2"
}
layer {
  name: "pool2"
  type: "Pooling"
  bottom: "conv2"
  top: "pool2"
  pooling_param {
    pool: AVE
    kernel_size: 3
    stride: 2
  }
}
layer {
  name: "conv3"
  type: "Convolution"
  bottom: "pool2"
  top: "conv3"
  param {
    lr_mult: 1
  }
  param {
    lr_mult: 2
  }
  convolution_param {
    num_output: 64
    pad: 2
    kernel_size: 5
    stride: 1
    weight_filler {
      type: "gaussian"
      std: 0.01
    }
    bias_filler {
      type: "constant"
    }
  }
}
layer {
  name: "relu3"
  type: "ReLU"
  bottom: "conv3"
  top: "conv3"
}
layer {
  name: "pool3"
  type: "Pooling"
  bottom: "conv3"
  top: "pool3"
  pooling_param {
    pool: AVE
    kernel_size: 3
    stride: 2
  }
}
layer {
  name: "ip1"
  type: "InnerProduct"
  bottom: "pool3"
  top: "ip1"
  param {
    lr_mult: 1
  }
  param {
    lr_mult: 2
  }
  inner_product_param {
    num_output: 64
    weight_filler {
      type: "gaussian"
      std: 0.1
    }
    bias_filler {
      type: "constant"
    }
  }
}
layer {
  name: "ip2"
  type: "InnerProduct"
  bottom: "ip1"
  top: "ip2"
  param {
    lr_mult: 1
  }
  param {
    lr_mult: 2
  }
  inner_product_param {
    num_output: 10
    weight_filler {
      type: "gaussian"
      std: 0.1
    }
    bias_filler {
      type: "constant"
    }
  }
}
layer {
  name: "loss"
  type: "SoftmaxWithLoss"
  bottom: "ip2"
  bottom: "label"
  top: "loss"
}
I0427 18:59:03.242928 22655 layer_factory.hpp:77] Creating layer cifar
I0427 18:59:03.244886 22655 db_lmdb.cpp:35] Opened lmdb examples/cifar10/cifar10_train_lmdb
I0427 18:59:03.245586 22655 net.cpp:86] Creating Layer cifar
I0427 18:59:03.245635 22655 net.cpp:382] cifar -> data
I0427 18:59:03.245697 22655 net.cpp:382] cifar -> label
I0427 18:59:03.245744 22655 data_transformer.cpp:25] Loading mean file from: examples/cifar10/mean.binaryproto
I0427 18:59:03.246013 22655 data_layer.cpp:45] output data size: 100,3,32,32
[New Thread 0x7fffba927700 (LWP 22666)]
I0427 18:59:03.246426 22655 net.cpp:124] Setting up cifar
I0427 18:59:03.246435 22655 net.cpp:131] Top shape: 100 3 32 32 (307200)
I0427 18:59:03.246445 22655 net.cpp:131] Top shape: 100 (100)
I0427 18:59:03.246449 22655 net.cpp:139] Memory required for data: 1229200
I0427 18:59:03.246454 22655 layer_factory.hpp:77] Creating layer conv1
I0427 18:59:03.246467 22655 net.cpp:86] Creating Layer conv1
I0427 18:59:03.246471 22655 net.cpp:408] conv1 <- data
I0427 18:59:03.246480 22655 net.cpp:382] conv1 -> conv1
I0427 18:59:03.246542 22655 net.cpp:124] Setting up conv1
I0427 18:59:03.246546 22655 net.cpp:131] Top shape: 100 32 32 32 (3276800)
I0427 18:59:03.246548 22655 net.cpp:139] Memory required for data: 14336400
I0427 18:59:03.246562 22655 layer_factory.hpp:77] Creating layer pool1
I0427 18:59:03.246565 22655 net.cpp:86] Creating Layer pool1
I0427 18:59:03.246568 22655 net.cpp:408] pool1 <- conv1
I0427 18:59:03.246572 22655 net.cpp:382] pool1 -> pool1
I0427 18:59:03.246583 22655 net.cpp:124] Setting up pool1
I0427 18:59:03.246587 22655 net.cpp:131] Top shape: 100 32 16 16 (819200)
I0427 18:59:03.246589 22655 net.cpp:139] Memory required for data: 17613200
I0427 18:59:03.246592 22655 layer_factory.hpp:77] Creating layer relu1
I0427 18:59:03.246595 22655 net.cpp:86] Creating Layer relu1
I0427 18:59:03.246598 22655 net.cpp:408] relu1 <- pool1
I0427 18:59:03.246601 22655 net.cpp:369] relu1 -> pool1 (in-place)
I0427 18:59:03.246606 22655 net.cpp:124] Setting up relu1
I0427 18:59:03.246608 22655 net.cpp:131] Top shape: 100 32 16 16 (819200)
I0427 18:59:03.246613 22655 net.cpp:139] Memory required for data: 20890000
I0427 18:59:03.246614 22655 layer_factory.hpp:77] Creating layer conv2
I0427 18:59:03.246619 22655 net.cpp:86] Creating Layer conv2
I0427 18:59:03.246623 22655 net.cpp:408] conv2 <- pool1
I0427 18:59:03.246626 22655 net.cpp:382] conv2 -> conv2
I0427 18:59:03.246894 22655 net.cpp:124] Setting up conv2
I0427 18:59:03.246901 22655 net.cpp:131] Top shape: 100 32 16 16 (819200)
I0427 18:59:03.246906 22655 net.cpp:139] Memory required for data: 24166800
I0427 18:59:03.246909 22655 layer_factory.hpp:77] Creating layer relu2
I0427 18:59:03.246912 22655 net.cpp:86] Creating Layer relu2
I0427 18:59:03.246915 22655 net.cpp:408] relu2 <- conv2
I0427 18:59:03.246918 22655 net.cpp:369] relu2 -> conv2 (in-place)
I0427 18:59:03.246922 22655 net.cpp:124] Setting up relu2
I0427 18:59:03.246924 22655 net.cpp:131] Top shape: 100 32 16 16 (819200)
I0427 18:59:03.246927 22655 net.cpp:139] Memory required for data: 27443600
I0427 18:59:03.246929 22655 layer_factory.hpp:77] Creating layer pool2
I0427 18:59:03.246932 22655 net.cpp:86] Creating Layer pool2
I0427 18:59:03.246935 22655 net.cpp:408] pool2 <- conv2
I0427 18:59:03.246938 22655 net.cpp:382] pool2 -> pool2
I0427 18:59:03.246942 22655 net.cpp:124] Setting up pool2
I0427 18:59:03.246944 22655 net.cpp:131] Top shape: 100 32 8 8 (204800)
I0427 18:59:03.246948 22655 net.cpp:139] Memory required for data: 28262800
I0427 18:59:03.246950 22655 layer_factory.hpp:77] Creating layer conv3
I0427 18:59:03.246955 22655 net.cpp:86] Creating Layer conv3
I0427 18:59:03.246958 22655 net.cpp:408] conv3 <- pool2
I0427 18:59:03.246963 22655 net.cpp:382] conv3 -> conv3
I0427 18:59:03.247481 22655 net.cpp:124] Setting up conv3
I0427 18:59:03.247484 22655 net.cpp:131] Top shape: 100 64 8 8 (409600)
I0427 18:59:03.247488 22655 net.cpp:139] Memory required for data: 29901200
I0427 18:59:03.247491 22655 layer_factory.hpp:77] Creating layer relu3
I0427 18:59:03.247496 22655 net.cpp:86] Creating Layer relu3
I0427 18:59:03.247498 22655 net.cpp:408] relu3 <- conv3
I0427 18:59:03.247501 22655 net.cpp:369] relu3 -> conv3 (in-place)
I0427 18:59:03.247505 22655 net.cpp:124] Setting up relu3
I0427 18:59:03.247507 22655 net.cpp:131] Top shape: 100 64 8 8 (409600)
I0427 18:59:03.247510 22655 net.cpp:139] Memory required for data: 31539600
I0427 18:59:03.247512 22655 layer_factory.hpp:77] Creating layer pool3
I0427 18:59:03.247515 22655 net.cpp:86] Creating Layer pool3
I0427 18:59:03.247519 22655 net.cpp:408] pool3 <- conv3
I0427 18:59:03.247531 22655 net.cpp:382] pool3 -> pool3
I0427 18:59:03.247536 22655 net.cpp:124] Setting up pool3
I0427 18:59:03.247539 22655 net.cpp:131] Top shape: 100 64 4 4 (102400)
I0427 18:59:03.247541 22655 net.cpp:139] Memory required for data: 31949200
I0427 18:59:03.247545 22655 layer_factory.hpp:77] Creating layer ip1
I0427 18:59:03.247548 22655 net.cpp:86] Creating Layer ip1
I0427 18:59:03.247551 22655 net.cpp:408] ip1 <- pool3
I0427 18:59:03.247555 22655 net.cpp:382] ip1 -> ip1
I0427 18:59:03.248212 22655 net.cpp:124] Setting up ip1
I0427 18:59:03.248214 22655 net.cpp:131] Top shape: 100 64 (6400)
I0427 18:59:03.248219 22655 net.cpp:139] Memory required for data: 31974800
I0427 18:59:03.248221 22655 layer_factory.hpp:77] Creating layer ip2
I0427 18:59:03.248225 22655 net.cpp:86] Creating Layer ip2
I0427 18:59:03.248227 22655 net.cpp:408] ip2 <- ip1
I0427 18:59:03.248232 22655 net.cpp:382] ip2 -> ip2
I0427 18:59:03.248247 22655 net.cpp:124] Setting up ip2
I0427 18:59:03.248250 22655 net.cpp:131] Top shape: 100 10 (1000)
I0427 18:59:03.248252 22655 net.cpp:139] Memory required for data: 31978800
I0427 18:59:03.248257 22655 layer_factory.hpp:77] Creating layer loss
I0427 18:59:03.248260 22655 net.cpp:86] Creating Layer loss
I0427 18:59:03.248263 22655 net.cpp:408] loss <- ip2
I0427 18:59:03.248265 22655 net.cpp:408] loss <- label
I0427 18:59:03.248270 22655 net.cpp:382] loss -> loss
I0427 18:59:03.248275 22655 layer_factory.hpp:77] Creating layer loss
…
I0427 18:59:03.251657 22655 solver.cpp:190] Creating test net (#0) specified by net file: examples/cifar10/cifar10_quick_train_test.prototxt
I0427 18:59:03.251678 22655 net.cpp:296] The NetState phase (1) differed from the phase (0) specified by a rule in layer cifar
I0427 18:59:03.251688 22655 net.cpp:53] Initializing net from parameters: 
name: "CIFAR10_quick"
state {
  phase: TEST
}
layer {
  name: "cifar"
  type: "Data"
  top: "data"
  top: "label"
  include {
    phase: TEST
  }
  transform_param {
    mean_file: "examples/cifar10/mean.binaryproto"
  }
  data_param {
    source: "examples/cifar10/cifar10_test_lmdb"
    batch_size: 100
    backend: LMDB
  }
}
layer {
  name: "conv1"
  type: "Convolution"
  bottom: "data"
  top: "conv1"
  param {
    lr_mult: 1
  }
  param {
    lr_mult: 2
  }
  convolution_param {
    num_output: 32
    pad: 2
    kernel_size: 5
    stride: 1
    weight_filler {
      type: "gaussian"
      std: 0.0001
    }
    bias_filler {
      type: "constant"
    }
  }
}
layer {
  name: "pool1"
  type: "Pooling"
  bottom: "conv1"
  top: "pool1"
  pooling_param {
    pool: MAX
    kernel_size: 3
    stride: 2
  }
}
layer {
  name: "relu1"
  type: "ReLU"
  bottom: "pool1"
  top: "pool1"
}
layer {
  name: "conv2"
  type: "Convolution"
  bottom: "pool1"
  top: "conv2"
  param {
    lr_mult: 1
  }
  param {
    lr_mult: 2
  }
  convolution_param {
    num_output: 32
    pad: 2
    kernel_size: 5
    stride: 1
    weight_filler {
      type: "gaussian"
      std: 0.01
    }
    bias_filler {
      type: "constant"
    }
  }
}
layer {
  name: "relu2"
  type: "ReLU"
  bottom: "conv2"
  top: "conv2"
}
layer {
  name: "pool2"
  type: "Pooling"
  bottom: "conv2"
  top: "pool2"
  pooling_param {
    pool: AVE
    kernel_size: 3
    stride: 2
  }
}
layer {
  name: "conv3"
  type: "Convolution"
  bottom: "pool2"
  top: "conv3"
  param {
    lr_mult: 1
  }
  param {
    lr_mult: 2
  }
  convolution_param {
    num_output: 64
    pad: 2
    kernel_size: 5
    stride: 1
    weight_filler {
      type: "gaussian"
      std: 0.01
    }
    bias_filler {
      type: "constant"
    }
  }
}
layer {
  name: "relu3"
  type: "ReLU"
  bottom: "conv3"
  top: "conv3"
}
layer {
  name: "pool3"
  type: "Pooling"
  bottom: "conv3"
  top: "pool3"
  pooling_param {
    pool: AVE
    kernel_size: 3
    stride: 2
  }
}
layer {
  name: "ip1"
  type: "InnerProduct"
  bottom: "pool3"
  top: "ip1"
  param {
    lr_mult: 1
  }
  param {
    lr_mult: 2
  }
  inner_product_param {
    num_output: 64
    weight_filler {
      type: "gaussian"
      std: 0.1
    }
    bias_filler {
      type: "constant"
    }
  }
}
layer {
  name: "ip2"
  type: "InnerProduct"
  bottom: "ip1"
  top: "ip2"
  param {
    lr_mult: 1
  }
  param {
    lr_mult: 2
  }
  inner_product_param {
    num_output: 10
    weight_filler {
      type: "gaussian"
      std: 0.1
    }
    bias_filler {
      type: "constant"
    }
  }
}
layer {
  name: "accuracy"
  type: "Accuracy"
  bottom: "ip2"
  bottom: "label"
  top: "accuracy"
  include {
    phase: TEST
  }
}
layer {
  name: "loss"
  type: "SoftmaxWithLoss"
  bottom: "ip2"
  bottom: "label"
  top: "loss"
}
I0427 18:59:03.251811 22655 layer_factory.hpp:77] Creating layer cifar
I0427 18:59:03.259579 22655 db_lmdb.cpp:35] Opened lmdb examples/cifar10/cifar10_test_lmdb
I0427 18:59:03.260224 22655 net.cpp:86] Creating Layer cifar
I0427 18:59:03.260236 22655 net.cpp:382] cifar -> data
I0427 18:59:03.260241 22655 net.cpp:382] cifar -> label
I0427 18:59:03.260246 22655 data_transformer.cpp:25] Loading mean file from: examples/cifar10/mean.binaryproto
I0427 18:59:03.260449 22655 data_layer.cpp:45] output data size: 100,3,32,32
[New Thread 0x7fffb9c31700 (LWP 22667)]
I0427 18:59:03.262615 22655 net.cpp:124] Setting up cifar
I0427 18:59:03.262621 22655 net.cpp:131] Top shape: 100 3 32 32 (307200)
I0427 18:59:03.262626 22655 net.cpp:131] Top shape: 100 (100)
I0427 18:59:03.262630 22655 net.cpp:139] Memory required for data: 1229200
I0427 18:59:03.262634 22655 layer_factory.hpp:77] Creating layer label_cifar_1_split
I0427 18:59:03.262639 22655 net.cpp:86] Creating Layer label_cifar_1_split
I0427 18:59:03.262642 22655 net.cpp:408] label_cifar_1_split <- label
I0427 18:59:03.262646 22655 net.cpp:382] label_cifar_1_split -> label_cifar_1_split_0
I0427 18:59:03.262652 22655 net.cpp:382] label_cifar_1_split -> label_cifar_1_split_1
I0427 18:59:03.262657 22655 net.cpp:124] Setting up label_cifar_1_split
I0427 18:59:03.262660 22655 net.cpp:131] Top shape: 100 (100)
I0427 18:59:03.262663 22655 net.cpp:131] Top shape: 100 (100)
I0427 18:59:03.262666 22655 net.cpp:139] Memory required for data: 1230000
I0427 18:59:03.262670 22655 layer_factory.hpp:77] Creating layer conv1
I0427 18:59:03.262677 22655 net.cpp:86] Creating Layer conv1
I0427 18:59:03.262679 22655 net.cpp:408] conv1 <- data
I0427 18:59:03.262683 22655 net.cpp:382] conv1 -> conv1
I0427 18:59:03.262722 22655 net.cpp:124] Setting up conv1
I0427 18:59:03.262725 22655 net.cpp:131] Top shape: 100 32 32 32 (3276800)
I0427 18:59:03.262729 22655 net.cpp:139] Memory required for data: 14337200
I0427 18:59:03.262734 22655 layer_factory.hpp:77] Creating layer pool1
I0427 18:59:03.262739 22655 net.cpp:86] Creating Layer pool1
I0427 18:59:03.262742 22655 net.cpp:408] pool1 <- conv1
I0427 18:59:03.262745 22655 net.cpp:382] pool1 -> pool1
I0427 18:59:03.262760 22655 net.cpp:124] Setting up pool1
I0427 18:59:03.262763 22655 net.cpp:131] Top shape: 100 32 16 16 (819200)
I0427 18:59:03.262766 22655 net.cpp:139] Memory required for data: 17614000
I0427 18:59:03.262769 22655 layer_factory.hpp:77] Creating layer relu1
I0427 18:59:03.262773 22655 net.cpp:86] Creating Layer relu1
I0427 18:59:03.262776 22655 net.cpp:408] relu1 <- pool1
I0427 18:59:03.262779 22655 net.cpp:369] relu1 -> pool1 (in-place)
I0427 18:59:03.262782 22655 net.cpp:124] Setting up relu1
I0427 18:59:03.262785 22655 net.cpp:131] Top shape: 100 32 16 16 (819200)
I0427 18:59:03.262789 22655 net.cpp:139] Memory required for data: 20890800
I0427 18:59:03.262790 22655 layer_factory.hpp:77] Creating layer conv2
I0427 18:59:03.262797 22655 net.cpp:86] Creating Layer conv2
I0427 18:59:03.262799 22655 net.cpp:408] conv2 <- pool1
I0427 18:59:03.262804 22655 net.cpp:382] conv2 -> conv2
I0427 18:59:03.263072 22655 net.cpp:124] Setting up conv2
I0427 18:59:03.263074 22655 net.cpp:131] Top shape: 100 32 16 16 (819200)
I0427 18:59:03.263077 22655 net.cpp:139] Memory required for data: 24167600
I0427 18:59:03.263082 22655 layer_factory.hpp:77] Creating layer relu2
I0427 18:59:03.263085 22655 net.cpp:86] Creating Layer relu2
I0427 18:59:03.263087 22655 net.cpp:408] relu2 <- conv2
I0427 18:59:03.263090 22655 net.cpp:369] relu2 -> conv2 (in-place)
I0427 18:59:03.263093 22655 net.cpp:124] Setting up relu2
I0427 18:59:03.263097 22655 net.cpp:131] Top shape: 100 32 16 16 (819200)
I0427 18:59:03.263100 22655 net.cpp:139] Memory required for data: 27444400
I0427 18:59:03.263103 22655 layer_factory.hpp:77] Creating layer pool2
I0427 18:59:03.263108 22655 net.cpp:86] Creating Layer pool2
I0427 18:59:03.263109 22655 net.cpp:408] pool2 <- conv2
I0427 18:59:03.263113 22655 net.cpp:382] pool2 -> pool2
I0427 18:59:03.263116 22655 net.cpp:124] Setting up pool2
I0427 18:59:03.263119 22655 net.cpp:131] Top shape: 100 32 8 8 (204800)
I0427 18:59:03.263123 22655 net.cpp:139] Memory required for data: 28263600
I0427 18:59:03.263125 22655 layer_factory.hpp:77] Creating layer conv3
I0427 18:59:03.263130 22655 net.cpp:86] Creating Layer conv3
I0427 18:59:03.263134 22655 net.cpp:408] conv3 <- pool2
I0427 18:59:03.263137 22655 net.cpp:382] conv3 -> conv3
I0427 18:59:03.263659 22655 net.cpp:124] Setting up conv3
I0427 18:59:03.263662 22655 net.cpp:131] Top shape: 100 64 8 8 (409600)
I0427 18:59:03.263666 22655 net.cpp:139] Memory required for data: 29902000
I0427 18:59:03.263672 22655 layer_factory.hpp:77] Creating layer relu3
I0427 18:59:03.263675 22655 net.cpp:86] Creating Layer relu3
I0427 18:59:03.263679 22655 net.cpp:408] relu3 <- conv3
I0427 18:59:03.263681 22655 net.cpp:369] relu3 -> conv3 (in-place)
I0427 18:59:03.263684 22655 net.cpp:124] Setting up relu3
I0427 18:59:03.263687 22655 net.cpp:131] Top shape: 100 64 8 8 (409600)
I0427 18:59:03.263690 22655 net.cpp:139] Memory required for data: 31540400
I0427 18:59:03.263694 22655 layer_factory.hpp:77] Creating layer pool3
I0427 18:59:03.263695 22655 net.cpp:86] Creating Layer pool3
I0427 18:59:03.263698 22655 net.cpp:408] pool3 <- conv3
I0427 18:59:03.263701 22655 net.cpp:382] pool3 -> pool3
I0427 18:59:03.263706 22655 net.cpp:124] Setting up pool3
I0427 18:59:03.263710 22655 net.cpp:131] Top shape: 100 64 4 4 (102400)
I0427 18:59:03.263712 22655 net.cpp:139] Memory required for data: 31950000
I0427 18:59:03.263715 22655 layer_factory.hpp:77] Creating layer ip1
I0427 18:59:03.263718 22655 net.cpp:86] Creating Layer ip1
I0427 18:59:03.263721 22655 net.cpp:408] ip1 <- pool3
I0427 18:59:03.263725 22655 net.cpp:382] ip1 -> ip1
I0427 18:59:03.264382 22655 net.cpp:124] Setting up ip1
I0427 18:59:03.264385 22655 net.cpp:131] Top shape: 100 64 (6400)
I0427 18:59:03.264389 22655 net.cpp:139] Memory required for data: 31975600
I0427 18:59:03.264392 22655 layer_factory.hpp:77] Creating layer ip2
I0427 18:59:03.264396 22655 net.cpp:86] Creating Layer ip2
I0427 18:59:03.264398 22655 net.cpp:408] ip2 <- ip1
I0427 18:59:03.264402 22655 net.cpp:382] ip2 -> ip2
I0427 18:59:03.264417 22655 net.cpp:124] Setting up ip2
I0427 18:59:03.264425 22655 net.cpp:131] Top shape: 100 10 (1000)
I0427 18:59:03.264427 22655 net.cpp:139] Memory required for data: 31979600
I0427 18:59:03.264432 22655 layer_factory.hpp:77] Creating layer ip2_ip2_0_split
I0427 18:59:03.264436 22655 net.cpp:86] Creating Layer ip2_ip2_0_split
I0427 18:59:03.264438 22655 net.cpp:408] ip2_ip2_0_split <- ip2
I0427 18:59:03.264441 22655 net.cpp:382] ip2_ip2_0_split -> ip2_ip2_0_split_0
I0427 18:59:03.264446 22655 net.cpp:382] ip2_ip2_0_split -> ip2_ip2_0_split_1
I0427 18:59:03.264451 22655 net.cpp:124] Setting up ip2_ip2_0_split
I0427 18:59:03.264452 22655 net.cpp:131] Top shape: 100 10 (1000)
I0427 18:59:03.264456 22655 net.cpp:131] Top shape: 100 10 (1000)
I0427 18:59:03.264458 22655 net.cpp:139] Memory required for data: 31987600
I0427 18:59:03.264461 22655 layer_factory.hpp:77] Creating layer accuracy
I0427 18:59:03.264466 22655 net.cpp:86] Creating Layer accuracy
I0427 18:59:03.264467 22655 net.cpp:408] accuracy <- ip2_ip2_0_split_0
I0427 18:59:03.264470 22655 net.cpp:408] accuracy <- label_cifar_1_split_0
I0427 18:59:03.264474 22655 net.cpp:382] accuracy -> accuracy
…
