…
I0426 11:08:56.792138 12445 net.cpp:296] The NetState phase (0) differed from the phase (1) specified by a rule in layer accuracy
I0426 11:08:56.792980 12445 net.cpp:53] Initializing net from parameters: 
name: "CIFAR10_quick"
state {
  phase: TRAIN
  level: 0
  stage: ""
}
layer {
  name: "cifar"
  type: "Data"
  top: "data"
  top: "label"
  include {
    phase: TRAIN
  }
  transform_param {
    mean_file: "examples/cifar10/mean.binaryproto"
  }
  data_param {
    source: "examples/cifar10/cifar10_train_lmdb"
    batch_size: 100
    backend: LMDB
  }
}
layer {
  name: "conv1"
  type: "Convolution"
  bottom: "data"
  top: "conv1"
  param {
    lr_mult: 1
  }
  param {
    lr_mult: 2
  }
  convolution_param {
    num_output: 32
    pad: 2
    kernel_size: 5
    stride: 1
    weight_filler {
      type: "gaussian"
      std: 0.0001
    }
    bias_filler {
      type: "constant"
    }
  }
}
layer {
  name: "pool1"
  type: "Pooling"
  bottom: "conv1"
  top: "pool1"
  pooling_param {
    pool: MAX
    kernel_size: 3
    stride: 2
  }
}
layer {
  name: "relu1"
  type: "ReLU"
  bottom: "pool1"
  top: "pool1"
}
layer {
  name: "conv2"
  type: "Convolution"
  bottom: "pool1"
  top: "conv2"
  param {
    lr_mult: 1
  }
  param {
    lr_mult: 2
  }
  convolution_param {
    num_output: 32
    pad: 2
    kernel_size: 5
    stride: 1
    weight_filler {
      type: "gaussian"
      std: 0.01
    }
    bias_filler {
      type: "constant"
    }
  }
}
layer {
  name: "relu2"
  type: "ReLU"
  bottom: "conv2"
  top: "conv2"
}
layer {
  name: "pool2"
  type: "Pooling"
  bottom: "conv2"
  top: "pool2"
  pooling_param {
    pool: AVE
    kernel_size: 3
    stride: 2
  }
}
layer {
  name: "conv3"
  type: "Convolution"
  bottom: "pool2"
  top: "conv3"
  param {
    lr_mult: 1
  }
  param {
    lr_mult: 2
  }
  convolution_param {
    num_output: 64
    pad: 2
    kernel_size: 5
    stride: 1
    weight_filler {
      type: "gaussian"
      std: 0.01
    }
    bias_filler {
      type: "constant"
    }
  }
}
layer {
  name: "relu3"
  type: "ReLU"
  bottom: "conv3"
  top: "conv3"
}
layer {
  name: "pool3"
  type: "Pooling"
  bottom: "conv3"
  top: "pool3"
  pooling_param {
    pool: AVE
    kernel_size: 3
    stride: 2
  }
}
layer {
  name: "ip1"
  type: "InnerProduct"
  bottom: "pool3"
  top: "ip1"
  param {
    lr_mult: 1
  }
  param {
    lr_mult: 2
  }
  inner_product_param {
    num_output: 64
    weight_filler {
      type: "gaussian"
      std: 0.1
    }
    bias_filler {
      type: "constant"
    }
  }
}
layer {
  name: "ip2"
  type: "InnerProduct"
  bottom: "ip1"
  top: "ip2"
  param {
    lr_mult: 1
  }
  param {
    lr_mult: 2
  }
  inner_product_param {
    num_output: 10
    weight_filler {
      type: "gaussian"
      std: 0.1
    }
    bias_filler {
      type: "constant"
    }
  }
}
layer {
  name: "loss"
  type: "SoftmaxWithLoss"
  bottom: "ip2"
  bottom: "label"
  top: "loss"
}
I0426 11:08:56.813663 12445 layer_factory.hpp:77] Creating layer cifar
I0426 11:08:56.825626 12445 db_lmdb.cpp:35] Opened lmdb examples/cifar10/cifar10_train_lmdb
I0426 11:08:56.834245 12445 net.cpp:86] Creating Layer cifar
I0426 11:08:56.835495 12445 net.cpp:382] cifar -> data
I0426 11:08:56.843014 12445 net.cpp:382] cifar -> label
I0426 11:08:56.846575 12445 data_transformer.cpp:25] Loading mean file from: examples/cifar10/mean.binaryproto
I0426 11:08:56.859316 12445 data_layer.cpp:45] output data size: 100,3,32,32
I0426 11:08:56.888823 12445 net.cpp:124] Setting up cifar
I0426 11:08:56.891120 12445 net.cpp:131] Top shape: 100 3 32 32 (307200)
I0426 11:08:56.893291 12445 net.cpp:131] Top shape: 100 (100)
I0426 11:08:56.893560 12445 net.cpp:139] Memory required for data: 1229200
I0426 11:08:56.894387 12445 layer_factory.hpp:77] Creating layer conv1
I0426 11:08:56.896646 12445 net.cpp:86] Creating Layer conv1
I0426 11:08:56.897903 12445 net.cpp:408] conv1 <- data
I0426 11:08:56.900218 12445 net.cpp:382] conv1 -> conv1
I0426 11:08:56.918049 12445 net.cpp:124] Setting up conv1
I0426 11:08:56.918146 12445 net.cpp:131] Top shape: 100 32 32 32 (3276800)
I0426 11:08:56.918254 12445 net.cpp:139] Memory required for data: 14336400
I0426 11:08:56.922708 12445 layer_factory.hpp:77] Creating layer pool1
I0426 11:08:56.923197 12445 net.cpp:86] Creating Layer pool1
I0426 11:08:56.923384 12445 net.cpp:408] pool1 <- conv1
I0426 11:08:56.923835 12445 net.cpp:382] pool1 -> pool1
I0426 11:08:56.927289 12445 net.cpp:124] Setting up pool1
I0426 11:08:56.927590 12445 net.cpp:131] Top shape: 100 32 16 16 (819200)
I0426 11:08:56.927712 12445 net.cpp:139] Memory required for data: 17613200
I0426 11:08:56.927791 12445 layer_factory.hpp:77] Creating layer relu1
I0426 11:08:56.928390 12445 net.cpp:86] Creating Layer relu1
I0426 11:08:56.928494 12445 net.cpp:408] relu1 <- pool1
I0426 11:08:56.928819 12445 net.cpp:369] relu1 -> pool1 (in-place)
I0426 11:08:56.929801 12445 net.cpp:124] Setting up relu1
I0426 11:08:56.929947 12445 net.cpp:131] Top shape: 100 32 16 16 (819200)
I0426 11:08:56.930066 12445 net.cpp:139] Memory required for data: 20890000
I0426 11:08:56.930133 12445 layer_factory.hpp:77] Creating layer conv2
I0426 11:08:56.930289 12445 net.cpp:86] Creating Layer conv2
I0426 11:08:56.930359 12445 net.cpp:408] conv2 <- pool1
I0426 11:08:56.930465 12445 net.cpp:382] conv2 -> conv2
I0426 11:08:56.934805 12445 net.cpp:124] Setting up conv2
I0426 11:08:56.934885 12445 net.cpp:131] Top shape: 100 32 16 16 (819200)
I0426 11:08:56.934988 12445 net.cpp:139] Memory required for data: 24166800
I0426 11:08:56.935830 12445 layer_factory.hpp:77] Creating layer relu2
I0426 11:08:56.935940 12445 net.cpp:86] Creating Layer relu2
I0426 11:08:56.936012 12445 net.cpp:408] relu2 <- conv2
I0426 11:08:56.936111 12445 net.cpp:369] relu2 -> conv2 (in-place)
I0426 11:08:56.936203 12445 net.cpp:124] Setting up relu2
I0426 11:08:56.936276 12445 net.cpp:131] Top shape: 100 32 16 16 (819200)
I0426 11:08:56.936373 12445 net.cpp:139] Memory required for data: 27443600
I0426 11:08:56.936451 12445 layer_factory.hpp:77] Creating layer pool2
I0426 11:08:56.936537 12445 net.cpp:86] Creating Layer pool2
I0426 11:08:56.936611 12445 net.cpp:408] pool2 <- conv2
I0426 11:08:56.936699 12445 net.cpp:382] pool2 -> pool2
I0426 11:08:56.936857 12445 net.cpp:124] Setting up pool2
I0426 11:08:56.936924 12445 net.cpp:131] Top shape: 100 32 8 8 (204800)
I0426 11:08:56.937033 12445 net.cpp:139] Memory required for data: 28262800
I0426 11:08:56.937098 12445 layer_factory.hpp:77] Creating layer conv3
I0426 11:08:56.937218 12445 net.cpp:86] Creating Layer conv3
I0426 11:08:56.937297 12445 net.cpp:408] conv3 <- pool2
I0426 11:08:56.937403 12445 net.cpp:382] conv3 -> conv3
I0426 11:08:56.942693 12445 net.cpp:124] Setting up conv3
I0426 11:08:56.942765 12445 net.cpp:131] Top shape: 100 64 8 8 (409600)
I0426 11:08:56.942878 12445 net.cpp:139] Memory required for data: 29901200
I0426 11:08:56.943011 12445 layer_factory.hpp:77] Creating layer relu3
I0426 11:08:56.943114 12445 net.cpp:86] Creating Layer relu3
I0426 11:08:56.943181 12445 net.cpp:408] relu3 <- conv3
I0426 11:08:56.943276 12445 net.cpp:369] relu3 -> conv3 (in-place)
I0426 11:08:56.943367 12445 net.cpp:124] Setting up relu3
I0426 11:08:56.943440 12445 net.cpp:131] Top shape: 100 64 8 8 (409600)
I0426 11:08:56.943538 12445 net.cpp:139] Memory required for data: 31539600
I0426 11:08:56.943614 12445 layer_factory.hpp:77] Creating layer pool3
I0426 11:08:56.943698 12445 net.cpp:86] Creating Layer pool3
I0426 11:08:56.943773 12445 net.cpp:408] pool3 <- conv3
I0426 11:08:57.043184 12445 net.cpp:382] pool3 -> pool3
I0426 11:08:57.043628 12445 net.cpp:124] Setting up pool3
I0426 11:08:57.043911 12445 net.cpp:131] Top shape: 100 64 4 4 (102400)
I0426 11:08:57.044271 12445 net.cpp:139] Memory required for data: 31949200
I0426 11:08:57.044544 12445 layer_factory.hpp:77] Creating layer ip1
I0426 11:08:57.046370 12445 net.cpp:86] Creating Layer ip1
I0426 11:08:57.046681 12445 net.cpp:408] ip1 <- pool3
I0426 11:08:57.047050 12445 net.cpp:382] ip1 -> ip1
I0426 11:08:57.071789 12445 net.cpp:124] Setting up ip1
I0426 11:08:57.071928 12445 net.cpp:131] Top shape: 100 64 (6400)
I0426 11:08:57.072079 12445 net.cpp:139] Memory required for data: 31974800
I0426 11:08:57.072252 12445 layer_factory.hpp:77] Creating layer ip2
I0426 11:08:57.072399 12445 net.cpp:86] Creating Layer ip2
I0426 11:08:57.072517 12445 net.cpp:408] ip2 <- ip1
I0426 11:08:57.072665 12445 net.cpp:382] ip2 -> ip2
I0426 11:08:57.073156 12445 net.cpp:124] Setting up ip2
I0426 11:08:57.073282 12445 net.cpp:131] Top shape: 100 10 (1000)
I0426 11:08:57.073412 12445 net.cpp:139] Memory required for data: 31978800
I0426 11:08:57.073632 12445 layer_factory.hpp:77] Creating layer loss
I0426 11:08:57.074396 12445 net.cpp:86] Creating Layer loss
I0426 11:08:57.074506 12445 net.cpp:408] loss <- ip2
I0426 11:08:57.074709 12445 net.cpp:408] loss <- label
I0426 11:08:57.075573 12445 net.cpp:382] loss -> loss
I0426 11:08:57.077386 12445 layer_factory.hpp:77] Creating layer loss
…
I0426 11:08:57.101037 12445 solver.cpp:190] Creating test net (#0) specified by net file: examples/cifar10/cifar10_quick_train_test.prototxt
I0426 11:08:57.101711 12445 net.cpp:296] The NetState phase (1) differed from the phase (0) specified by a rule in layer cifar
I0426 11:08:57.101919 12445 net.cpp:53] Initializing net from parameters: 
name: "CIFAR10_quick"
state {
  phase: TEST
}
layer {
  name: "cifar"
  type: "Data"
  top: "data"
  top: "label"
  include {
    phase: TEST
  }
  transform_param {
    mean_file: "examples/cifar10/mean.binaryproto"
  }
  data_param {
    source: "examples/cifar10/cifar10_test_lmdb"
    batch_size: 100
    backend: LMDB
  }
}
layer {
  name: "conv1"
  type: "Convolution"
  bottom: "data"
  top: "conv1"
  param {
    lr_mult: 1
  }
  param {
    lr_mult: 2
  }
  convolution_param {
    num_output: 32
    pad: 2
    kernel_size: 5
    stride: 1
    weight_filler {
      type: "gaussian"
      std: 0.0001
    }
    bias_filler {
      type: "constant"
    }
  }
}
layer {
  name: "pool1"
  type: "Pooling"
  bottom: "conv1"
  top: "pool1"
  pooling_param {
    pool: MAX
    kernel_size: 3
    stride: 2
  }
}
layer {
  name: "relu1"
  type: "ReLU"
  bottom: "pool1"
  top: "pool1"
}
layer {
  name: "conv2"
  type: "Convolution"
  bottom: "pool1"
  top: "conv2"
  param {
    lr_mult: 1
  }
  param {
    lr_mult: 2
  }
  convolution_param {
    num_output: 32
    pad: 2
    kernel_size: 5
    stride: 1
    weight_filler {
      type: "gaussian"
      std: 0.01
    }
    bias_filler {
      type: "constant"
    }
  }
}
layer {
  name: "relu2"
  type: "ReLU"
  bottom: "conv2"
  top: "conv2"
}
layer {
  name: "pool2"
  type: "Pooling"
  bottom: "conv2"
  top: "pool2"
  pooling_param {
    pool: AVE
    kernel_size: 3
    stride: 2
  }
}
layer {
  name: "conv3"
  type: "Convolution"
  bottom: "pool2"
  top: "conv3"
  param {
    lr_mult: 1
  }
  param {
    lr_mult: 2
  }
  convolution_param {
    num_output: 64
    pad: 2
    kernel_size: 5
    stride: 1
    weight_filler {
      type: "gaussian"
      std: 0.01
    }
    bias_filler {
      type: "constant"
    }
  }
}
layer {
  name: "relu3"
  type: "ReLU"
  bottom: "conv3"
  top: "conv3"
}
layer {
  name: "pool3"
  type: "Pooling"
  bottom: "conv3"
  top: "pool3"
  pooling_param {
    pool: AVE
    kernel_size: 3
    stride: 2
  }
}
layer {
  name: "ip1"
  type: "InnerProduct"
  bottom: "pool3"
  top: "ip1"
  param {
    lr_mult: 1
  }
  param {
    lr_mult: 2
  }
  inner_product_param {
    num_output: 64
    weight_filler {
      type: "gaussian"
      std: 0.1
    }
    bias_filler {
      type: "constant"
    }
  }
}
layer {
  name: "ip2"
  type: "InnerProduct"
  bottom: "ip1"
  top: "ip2"
  param {
    lr_mult: 1
  }
  param {
    lr_mult: 2
  }
  inner_product_param {
    num_output: 10
    weight_filler {
      type: "gaussian"
      std: 0.1
    }
    bias_filler {
      type: "constant"
    }
  }
}
layer {
  name: "accuracy"
  type: "Accuracy"
  bottom: "ip2"
  bottom: "label"
  top: "accuracy"
  include {
    phase: TEST
  }
}
layer {
  name: "loss"
  type: "SoftmaxWithLoss"
  bottom: "ip2"
  bottom: "label"
  top: "loss"
}
I0426 11:08:57.110941 12445 layer_factory.hpp:77] Creating layer cifar
I0426 11:08:57.113433 12445 db_lmdb.cpp:35] Opened lmdb examples/cifar10/cifar10_test_lmdb
I0426 11:08:57.114156 12445 net.cpp:86] Creating Layer cifar
I0426 11:08:57.114270 12445 net.cpp:382] cifar -> data
I0426 11:08:57.114406 12445 net.cpp:382] cifar -> label
I0426 11:08:57.114531 12445 data_transformer.cpp:25] Loading mean file from: examples/cifar10/mean.binaryproto
I0426 11:08:57.115175 12445 data_layer.cpp:45] output data size: 100,3,32,32
I0426 11:08:57.135411 12445 net.cpp:124] Setting up cifar
I0426 11:08:57.135509 12445 net.cpp:131] Top shape: 100 3 32 32 (307200)
I0426 11:08:57.135623 12445 net.cpp:131] Top shape: 100 (100)
I0426 11:08:57.135718 12445 net.cpp:139] Memory required for data: 1229200
I0426 11:08:57.135788 12445 layer_factory.hpp:77] Creating layer label_cifar_1_split
I0426 11:08:57.136284 12445 net.cpp:86] Creating Layer label_cifar_1_split
I0426 11:08:57.136363 12445 net.cpp:408] label_cifar_1_split <- label
I0426 11:08:57.136626 12445 net.cpp:382] label_cifar_1_split -> label_cifar_1_split_0
I0426 11:08:57.136893 12445 net.cpp:382] label_cifar_1_split -> label_cifar_1_split_1
I0426 11:08:57.219621 12445 net.cpp:124] Setting up label_cifar_1_split
I0426 11:08:57.219911 12445 net.cpp:131] Top shape: 100 (100)
I0426 11:08:57.220265 12445 net.cpp:131] Top shape: 100 (100)
I0426 11:08:57.220564 12445 net.cpp:139] Memory required for data: 1230000
I0426 11:08:57.220834 12445 layer_factory.hpp:77] Creating layer conv1
I0426 11:08:57.221570 12445 net.cpp:86] Creating Layer conv1
I0426 11:08:57.221825 12445 net.cpp:408] conv1 <- data
I0426 11:08:57.222246 12445 net.cpp:382] conv1 -> conv1
I0426 11:08:57.224213 12445 net.cpp:124] Setting up conv1
I0426 11:08:57.224511 12445 net.cpp:131] Top shape: 100 32 32 32 (3276800)
I0426 11:08:57.224869 12445 net.cpp:139] Memory required for data: 14337200
I0426 11:08:57.225500 12445 layer_factory.hpp:77] Creating layer pool1
I0426 11:08:57.225857 12445 net.cpp:86] Creating Layer pool1
I0426 11:08:57.226099 12445 net.cpp:408] pool1 <- conv1
I0426 11:08:57.226464 12445 net.cpp:382] pool1 -> pool1
I0426 11:08:57.226977 12445 net.cpp:124] Setting up pool1
I0426 11:08:57.227257 12445 net.cpp:131] Top shape: 100 32 16 16 (819200)
I0426 11:08:57.227622 12445 net.cpp:139] Memory required for data: 17614000
I0426 11:08:57.227895 12445 layer_factory.hpp:77] Creating layer relu1
I0426 11:08:57.228215 12445 net.cpp:86] Creating Layer relu1
I0426 11:08:57.228492 12445 net.cpp:408] relu1 <- pool1
I0426 11:08:57.228804 12445 net.cpp:369] relu1 -> pool1 (in-place)
I0426 11:08:57.229112 12445 net.cpp:124] Setting up relu1
I0426 11:08:57.229267 12445 net.cpp:131] Top shape: 100 32 16 16 (819200)
I0426 11:08:57.229526 12445 net.cpp:139] Memory required for data: 20890800
I0426 11:08:57.229684 12445 layer_factory.hpp:77] Creating layer conv2
I0426 11:08:57.229988 12445 net.cpp:86] Creating Layer conv2
I0426 11:08:57.230151 12445 net.cpp:408] conv2 <- pool1
I0426 11:08:57.230430 12445 net.cpp:382] conv2 -> conv2
I0426 11:08:57.237222 12445 net.cpp:124] Setting up conv2
I0426 11:08:57.237398 12445 net.cpp:131] Top shape: 100 32 16 16 (819200)
I0426 11:08:57.237663 12445 net.cpp:139] Memory required for data: 24167600
I0426 11:08:57.237982 12445 layer_factory.hpp:77] Creating layer relu2
I0426 11:08:57.238205 12445 net.cpp:86] Creating Layer relu2
I0426 11:08:57.238378 12445 net.cpp:408] relu2 <- conv2
I0426 11:08:57.238590 12445 net.cpp:369] relu2 -> conv2 (in-place)
I0426 11:08:57.238735 12445 net.cpp:124] Setting up relu2
I0426 11:08:57.238854 12445 net.cpp:131] Top shape: 100 32 16 16 (819200)
I0426 11:08:57.239012 12445 net.cpp:139] Memory required for data: 27444400
I0426 11:08:57.239135 12445 layer_factory.hpp:77] Creating layer pool2
I0426 11:08:57.239274 12445 net.cpp:86] Creating Layer pool2
I0426 11:08:57.239398 12445 net.cpp:408] pool2 <- conv2
I0426 11:08:57.239537 12445 net.cpp:382] pool2 -> pool2
I0426 11:08:57.239749 12445 net.cpp:124] Setting up pool2
I0426 11:08:57.239854 12445 net.cpp:131] Top shape: 100 32 8 8 (204800)
I0426 11:08:57.240028 12445 net.cpp:139] Memory required for data: 28263600
I0426 11:08:57.240134 12445 layer_factory.hpp:77] Creating layer conv3
I0426 11:08:57.240355 12445 net.cpp:86] Creating Layer conv3
I0426 11:08:57.240465 12445 net.cpp:408] conv3 <- pool2
I0426 11:08:57.240646 12445 net.cpp:382] conv3 -> conv3
I0426 11:08:57.249557 12445 net.cpp:124] Setting up conv3
I0426 11:08:57.249661 12445 net.cpp:131] Top shape: 100 64 8 8 (409600)
I0426 11:08:57.249770 12445 net.cpp:139] Memory required for data: 29902000
I0426 11:08:57.249924 12445 layer_factory.hpp:77] Creating layer relu3
I0426 11:08:57.250016 12445 net.cpp:86] Creating Layer relu3
I0426 11:08:57.250100 12445 net.cpp:408] relu3 <- conv3
I0426 11:08:57.250195 12445 net.cpp:369] relu3 -> conv3 (in-place)
I0426 11:08:57.250308 12445 net.cpp:124] Setting up relu3
I0426 11:08:57.250378 12445 net.cpp:131] Top shape: 100 64 8 8 (409600)
I0426 11:08:57.250496 12445 net.cpp:139] Memory required for data: 31540400
I0426 11:08:57.250566 12445 layer_factory.hpp:77] Creating layer pool3
I0426 11:08:57.250670 12445 net.cpp:86] Creating Layer pool3
I0426 11:08:57.250741 12445 net.cpp:408] pool3 <- conv3
I0426 11:08:57.250847 12445 net.cpp:382] pool3 -> pool3
I0426 11:08:57.250968 12445 net.cpp:124] Setting up pool3
I0426 11:08:57.251049 12445 net.cpp:131] Top shape: 100 64 4 4 (102400)
I0426 11:08:57.251154 12445 net.cpp:139] Memory required for data: 31950000
I0426 11:08:57.251238 12445 layer_factory.hpp:77] Creating layer ip1
I0426 11:08:57.251348 12445 net.cpp:86] Creating Layer ip1
I0426 11:08:57.251420 12445 net.cpp:408] ip1 <- pool3
I0426 11:08:57.251540 12445 net.cpp:382] ip1 -> ip1
I0426 11:08:57.258628 12445 net.cpp:124] Setting up ip1
I0426 11:08:57.258718 12445 net.cpp:131] Top shape: 100 64 (6400)
I0426 11:08:57.258806 12445 net.cpp:139] Memory required for data: 31975600
I0426 11:08:57.258932 12445 layer_factory.hpp:77] Creating layer ip2
I0426 11:08:57.259034 12445 net.cpp:86] Creating Layer ip2
I0426 11:08:57.259114 12445 net.cpp:408] ip2 <- ip1
I0426 11:08:57.259215 12445 net.cpp:382] ip2 -> ip2
I0426 11:08:57.259467 12445 net.cpp:124] Setting up ip2
I0426 11:08:57.259570 12445 net.cpp:131] Top shape: 100 10 (1000)
I0426 11:08:57.259658 12445 net.cpp:139] Memory required for data: 31979600
I0426 11:08:57.259794 12445 layer_factory.hpp:77] Creating layer ip2_ip2_0_split
I0426 11:08:57.259896 12445 net.cpp:86] Creating Layer ip2_ip2_0_split
I0426 11:08:57.259963 12445 net.cpp:408] ip2_ip2_0_split <- ip2
I0426 11:08:57.260064 12445 net.cpp:382] ip2_ip2_0_split -> ip2_ip2_0_split_0
I0426 11:08:57.260268 12445 net.cpp:382] ip2_ip2_0_split -> ip2_ip2_0_split_1
I0426 11:08:57.260407 12445 net.cpp:124] Setting up ip2_ip2_0_split
I0426 11:08:57.260474 12445 net.cpp:131] Top shape: 100 10 (1000)
I0426 11:08:57.260573 12445 net.cpp:131] Top shape: 100 10 (1000)
I0426 11:08:57.260663 12445 net.cpp:139] Memory required for data: 31987600
I0426 11:08:57.260885 12445 layer_factory.hpp:77] Creating layer accuracy
I0426 11:08:57.261380 12445 net.cpp:86] Creating Layer accuracy
I0426 11:08:57.261468 12445 net.cpp:408] accuracy <- ip2_ip2_0_split_0
I0426 11:08:57.261622 12445 net.cpp:408] accuracy <- label_cifar_1_split_0
I0426 11:08:57.262158 12445 net.cpp:382] accuracy -> accuracy
…
